…
972190033,"user_tz":-540,"elapsed":827,"user":{"displayName":"이윤정","photoUrl":"","userId":"17426413811647127034"}},"colab":{"base_uri":"https://localhost:8080/","height":507}},"source":["model = create_model() # 모델 함수를 model로 변경\n","model.summary() # 모델에 대한 요약 출력해줌"],"execution_count":28,"outputs":[{"output_type":"stream","text":["Model: \"sequential_1\"\n","_________________________________________________________________\n","Layer (type)                 Output Shape              Param #   \n","=================================================================\n","conv2d_3 (Conv2D)            (None, 150, 150, 32)      896       \n","_________________________________________________________________\n","max_pooling2d_3 (MaxPooling2 (None, 75, 75, 32)        0         \n","_________________________________________________________________\n","conv2d_4 (Conv2D)            (None, 75, 75, 64)        18496     \n","_________________________________________________________________\n","max_pooling2d_4 (MaxPooling2 (None, 38, 38, 64)        0         \n","_________________________________________________________________\n","conv2d_5 (Conv2D)            (None, 38, 38, 128)       73856     \n","_________________________________________________________________\n","max_pooling2d_5 (MaxPooling2 (None, 19, 19, 128)       0         \n","_________________________________________________________________\n","flatten_1 (Flatten)          (None, 46208)             0         \n","_________________________________________________________________\n","dense_2 (Dense)              (None, 256)               11829504  \n","_________________________________________________________________\n","dropout_1 (Dropout)          (None, 256)               0         \n","_________________________________________________________________\n","dense_3 (Dense)              (None, 6)                 1542      \n","=================================================================\n","Total params: 11,924,294\n","Trainable params: 11,924,294\n","Non-trainable params: 0\n","_________________________________________________________________\n"],"name":"stdout"}]},{"cell_type":"code","metadata":{"id":"0_-3n6-QeEAq","colab_type":"code","colab":{}},"source":["import keras.backend as K\n","  \n","model.co
…
